…
â–ˆâ–ˆâ–ˆâ–ˆâ–ˆâ–ˆâ–ˆâ–ˆâ–Œ| 78.6M/81.8M [00:17<00:00, 4.27MB/s] 97%|â–ˆâ–ˆâ–ˆâ–ˆâ–ˆâ–ˆâ–ˆâ–ˆâ–ˆâ–‹| 79.5M/81.8M [00:17<00:00, 4.25MB/s] 98%|â–ˆâ–ˆâ–ˆâ–ˆâ–ˆâ–ˆâ–ˆâ–ˆâ–ˆâ–Š| 80.4M/81.8M [00:18<00:00, 4.18MB/s] 99%|â–ˆâ–ˆâ–ˆâ–ˆâ–ˆâ–ˆâ–ˆâ–ˆâ–ˆâ–‰| 81.3M/81.8M [00:18<00:00, 4.99MB/s]100%|â–ˆâ–ˆâ–ˆâ–ˆâ–ˆâ–ˆâ–ˆâ–ˆâ–ˆâ–ˆ| 81.8M/81.8M [00:18<00:00, 4.69MB/s]
[32m[12/20 08:12:53 DETR]: [0mDETR(
  (transformer): LinearTransformer(
    (encoder): TransformerEncoder(
      (layers): ModuleList(
        (0): TransformerEncoderLayer(
          (self_attn): MultiheadLinearAttention(
            (k_proj): Linear(in_features=256, out_features=256, bias=True)
            (v_proj): Linear(in_features=256, out_features=256, bias=True)
            (q_proj): Linear(in_features=256, out_features=256, bias=True)
            (compress_k): Linear(in_features=32768, out_features=128, bias=False)
            (out_proj): Linear(in_features=256, out_features=256, bias=True)
          )
          (linear1): Linear(in_features=256, out_features=2048, bias=True)
          (dropout): Dropout(p=0.1, inplace=False)
          (linear2): Linear(in_features=2048, out_features=256, bias=True)
          (norm1): LayerNorm((256,), eps=1e-05, elementwise_affine=True)
          (norm2): LayerNorm((256,), eps=1e-05, elementwise_affine=True)
          (dropout1): Dropout(p=0.1, inplace=False)
          (dropout2): Dropout(p=0.1, inplace=False)
        )
        (1): TransformerEncoderLayer(
          (self_attn): MultiheadLinearAttention(
            (k_proj): Linear(in_features=256, out_features=256, bias=True)
            (v_proj): Linear(in_features=256, out_features=256, bias=True)
            (q_proj): Linear(in_features=256, out_features=256, bias=True)
            (compress_k): Linear(in_features=32768, out_features=128, bias=False)
            (out_proj): Linear(in_features=256, out_features=256, bias=True)
          )
          (linear1): Linear(in_features=256, out_features=2048, bias=True)
          (dropout): Dropout(p=0.1, inplace=False)
          (linear2): Linear(in_features=2048, out_features=256, bias=True)
          (norm1): LayerNorm((256,), eps=1e-05, elementwise_affine=True)
          (norm2): LayerNorm((256,), eps=1e-05, elementwise_affine=True)
          (dropout1): Dropout(p=0.1, inplace=False)
          (dropout2): Dropout(p=0.1, inplace=False)
        )
        (2): TransformerEncoderLayer(
          (self_attn): MultiheadLinearAttention(
            (k_proj): Linear(in_features=256, out_features=256, bias=True)
            (v_proj): Linear(in_features=256, out_features=256, bias=True)
            (q_proj): Linear(in_features=256, out_features=256, bias=True)
            (compress_k): Linear(in_features=32768, out_features=128, bias=False)
            (out_proj): Linear(in_features=256, out_features=256, bias=True)
          )
          (linear1): Linear(in_features=256, out_features=2048, bias=True)
          (dropout): Dropout(p=0.1, inplace=False)
          (linear2): Linear(in_features=2048, out_features=256, bias=True)
          (norm1): LayerNorm((256,), eps=1e-05, elementwise_affine=True)
          (norm2): LayerNorm((256,), eps=1e-05, elementwise_affine=True)
          (dropout1): Dropout(p=0.1, inplace=False)
          (dropout2): Dropout(p=0.1, inplace=False)
        )
        (3): TransformerEncoderLayer(
          (self_attn): MultiheadLinearAttention(
            (k_proj): Linear(in_features=256, out_features=256, bias=True)
            (v_proj): Linear(in_features=256, out_features=256, bias=True)
            (q_proj): Linear(in_features=256, out_features=256, bias=True)
            (compress_k): Linear(in_features=32768, out_features=128, bias=False)
            (out_proj): Linear(in_features=256, out_features=256, bias=True)
          )
          (linear1): Linear(in_features=256, out_features=2048, bias=True)
          (dropout): Dropout(p=0.1, inplace=False)
          (linear2): Linear(in_features=2048, out_features=256, bias=True)
          (norm1): LayerNorm((256,), eps=1e-05, elementwise_affine=True)
          (norm2): LayerNorm((256,), eps=1e-05, elementwise_affine=True)
          (dropout1): Dropout(p=0.1, inplace=False)
          (dropout2): Dropout(p=0.1, inplace=False)
        )
        (4): TransformerEncoderLayer(
          (self_attn): MultiheadLinearAttention(
            (k_proj): Linear(in_features=256, out_features=256, bias=True)
            (v_proj): Linear(in_features=256, out_features=256, bias=True)
            (q_proj): Linear(in_features=256, out_features=256, bias=True)
            (compress_k): Linear(in_features=32768, out_features=128, bias=False)
            (out_proj): Linear(in_features=256, out_features=256, bias=True)
          )
          (linear1): Linear(in_features=256, out_features=2048, bias=True)
          (dropout): Dropout(p=0.1, inplace=False)
          (linear2): Linear(in_features=2048, out_features=256, bias=True)
          (norm1): LayerNorm((256,), eps=1e-05, elementwise_affine=True)
          (norm2): LayerNorm((256,), eps=1e-05, elementwise_affine=True)
          (dropout1): Dropout(p=0.1, inplace=False)
          (dropout2): Dropout(p=0.1, inplace=False)
        )
        (5): TransformerEncoderLayer(
          (self_attn): MultiheadLinearAttention(
            (k_proj): Linear(in_features=256, out_features=256, bias=True)
            (v_proj): Linear(in_features=256, out_features=256, bias=True)
            (q_proj): Linear(in_features=256, out_features=256, bias=True)
            (compress_k): Linear(in_features=32768, out_features=128, bias=False)
            (out_proj): Linear(in_features=256, out_features=256, bias=True)
          )
          (linear1): Linear(in_features=256, out_features=2048, bias=True)
          (dropout): Dropout(p=0.1, inplace=False)
          (linear2): Linear(in_features=2048, out_features=256, bias=True)
          (norm1): LayerNorm((256,), eps=1e-05, elementwise_affine=True)
          (norm2): LayerNorm((256,), eps=1e-05, elementwise_affine=True)
          (dropout1): Dropout(p=0.1, inplace=False)
          (dropout2): Dropout(p=0.1, inplace=False)
        )
      )
    )
    (decoder): TransformerDecoder(
      (layers): ModuleList(
        (0): TransformerDecoderLayer(
          (self_attn): MultiheadAttention(
            (out_proj): _LinearWithBias(in_features=256, out_features=256, bias=True)
          )
          (multihead_attn): MultiheadLinearAttention(
            (k_proj): Linear(in_features=256, out_features=256, bias=True)
            (v_proj): Linear(in_features=256, out_features=256, bias=True)
            (q_proj): Linear(in_features=256, out_features=256, bias=True)
            (compress_k): Linear(in_features=32768, out_features=128, bias=False)
            (out_proj): Linear(in_features=256, out_features=256, bias=True)
          )
          (linear1): Linear(in_features=256, out_features=2048, bias=True)
          (dropout): Dropout(p=0.1, inplace=False)
          (linear2): Linear(in_features=2048, out_features=256, bias=True)
          (norm1): LayerNorm((256,), eps=1e-05, elementwise_affine=True)
          (norm2): LayerNorm((256,), eps=1e-05, elementwise_affine=True)
          (norm3): LayerNorm((256,), eps=1e-05, elementwise_affine=True)
          (dropout1): Dropout(p=0.1, inplace=False)
          (dropout2): Dropout(p=0.1, inplace=False)
          (dropout3): Dropout(p=0.1, inplace=False)
        )
        (1): TransformerDecoderLayer(
          (self_attn): MultiheadAttention(
            (out_proj): _LinearWithBias(in_features=256, out_features=256, bias=True)
          )
          (multihead_attn): MultiheadLinearAttention(
            (k_proj): Linear(in_features=256, out_features=256, bias=True)
            (v_proj): Linear(in_features=256, out_features=256, bias=True)
            (q_proj): Linear(in_features=256, out_features=256, bias=True)
            (compress_k): Linear(in_features=32768, out_features=128, bias=False)
            (out_proj): Linear(in_features=256, out_features=256, bias=True)
          )
          (linear1): Linear(in_features=256, out_features=2048, bias=True)
          (dropout): Dropout(p=0.1, inplace=False)
          (linear2): Linear(in_features=2048, out_features=256, bias=True)
          (norm1): LayerNorm((256,), eps=1e-05, elementwise_affine=True)
          (norm2): LayerNorm((256,), eps=1e-05, elementwise_affine=True)
          (norm3): LayerNorm((256,), eps=1e-05, elementwise_affine=True)
          (dropout1): Dropout(p=0.1, inplace=False)
          (dropout2): Dropout(p=0.1, inplace=False)
          (dropout3): Dropout(p=0.1, inplace=False)
        )
        (2): TransformerDecoderLayer(
          (self_attn): MultiheadAttention(
            (out_proj): _LinearWithBias(in_features=256, out_features=256, bias=True)
          )
          (multihead_attn): MultiheadLinearAttention(
            (k_proj): Linear(in_features=256, out_features=256, bias=True)
            (v_proj): Linear(in_features=256, out_features=256, bias=True)
            (q_proj): Linear(in_features=256, out_features=256, bias=True)
            (compress_k): Linear(in_features=32768, out_features=128, bias=False)
            (out_proj): Linear(in_features=256, out_features=256, bias=True)
          )
          (linear1): Linear(in_features=256, out_features=2048, bias=True)
          (dropout): Dropout(p=0.1, inplace=False)
          (linear2): Linear(in_features=2048, out_features=256, bias=True)
          (norm1): LayerNorm((256,), eps=1e-05, elementwise_affine=True)
          (norm2): LayerNorm((256,), eps=1e-05, elementwise_affine=True)
          (norm3): LayerNorm((256,), eps=1e-05, elementwise_affine=True)
          (dropout1): Dropout(p=0.1, inplace=False)
          (dropout2): Dropout(p=0.1, inplace=False)
          (dropout3): Dropout(p=0.1, inplace=False)
        )
        (3): TransformerDecoderLayer(
          (self_attn): MultiheadAttention(
            (out_proj): _LinearWithBias(in_features=256, out_features=256, bias=True)
          )
          (multihead_attn): MultiheadLinearAttention(
            (k_proj): Linear(in_features=256, out_features=256, bias=True)
            (v_proj): Linear(in_features=256, out_features=256, bias=True)
            (q_proj): Linear(in_features=256, out_features=256, bias=True)
            (compress_k): Linear(in_features=32768, out_features=128, bias=False)
            (out_proj): Linear(in_features=256, out_features=256, bias=True)
          )
          (linear1): Linear(in_features=256, out_features=2048, bias=True)
          (dropout): Dropout(p=0.1, inplace=False)
          (linear2): Linear(in_features=2048, out_features=256, bias=True)
          (norm1): LayerNorm((256,), eps=1e-05, elementwise_affine=True)
          (norm2): LayerNorm((256,), eps=1e-05, elementwise_affine=True)
          (norm3): LayerNorm((256,), eps=1e-05, elementwise_affine=True)
          (dropout1): Dropout(p=0.1, inplace=False)
          (dropout2): Dropout(p=0.1, inplace=False)
          (dropout3): Dropout(p=0.1, inplace=False)
        )
        (4): TransformerDecoderLayer(
          (self_attn): MultiheadAttention(
            (out_proj): _LinearWithBias(in_features=256, out_features=256, bias=True)
          )
          (multihead_attn): MultiheadLinearAttention(
            (k_proj): Linear(in_features=256, out_features=256, bias=True)
            (v_proj): Linear(in_features=256, out_features=256, bias=True)
            (q_proj): Linear(in_features=256, out_features=256, bias=True)
            (compress_k): Linear(in_features=32768, out_features=128, bias=False)
            (out_proj): Linear(in_features=256, out_features=256, bias=True)
          )
          (linear1): Linear(in_features=256, out_features=2048, bias=True)
          (dropout): Dropout(p=0.1, inplace=False)
          (linear2): Linear(in_features=2048, out_features=256, bias=True)
          (norm1): LayerNorm((256,), eps=1e-05, elementwise_affine=True)
          (norm2): LayerNorm((256,), eps=1e-05, elementwise_affine=True)
          (norm3): LayerNorm((256,), eps=1e-05, elementwise_affine=True)
          (dropout1): Dropout(p=0.1, inplace=False)
          (dropout2): Dropout(p=0.1, inplace=False)
          (dropout3): Dropout(p=0.1, inplace=False)
        )
        (5): TransformerDecoderLayer(
          (self_attn): MultiheadAttention(
            (out_proj): _LinearWithBias(in_features=256, out_features=256, bias=True)
          )
          (multihead_attn): MultiheadLinearAttention(
            (k_proj): Linear(in_features=256, out_features=256, bias=True)
            (v_proj): Linear(in_features=256, out_features=256, bias=True)
            (q_proj): Linear(in_features=256, out_features=256, bias=True)
            (compress_k): Linear(in_features=32768, out_features=128, bias=False)
            (out_proj): Linear(in_features=256, out_features=256, bias=True)
          )
          (linear1): Linear(in_features=256, out_features=2048, bias=True)
          (dropout): Dropout(p=0.1, inplace=False)
          (linear2): Linear(in_features=2048, out_features=256, bias=True)
          (norm1): LayerNorm((256,), eps=1e-05, elementwise_affine=True)
          (norm2): LayerNorm((256,), eps=1e-05, elementwise_affine=True)
          (norm3): LayerNorm((256,), eps=1e-05, elementwise_affine=True)
          (dropout1): Dropout(p=0.1, inplace=False)
          (dropout2): Dropout(p=0.1, inplace=False)
          (dropout3): Dropout(p=0.1, inplace=False)
        )
      )
      (norm): LayerNorm((256,), eps=1e-05, elementwise_affine=True)
    )
    (encoder_output_proj): Conv2d(382, 256, kernel_size=(1, 1), stride=(1, 1))
  )
  (class_embed): Linear(in_features=256, out_features=92, bias=True)
  (bbox_embed): MLP(
    (layers): ModuleList(
      (0): Linear(in_features=256, out_features=256, bias=True)
      (1): Linear(in_features=256, out_features=256, bias=True)
      (2): Linear(in_features=256, out_features=4, bias=True)
    )
  )
  (query_embed): Embedding(100, 256)
  (backbone): Joiner(
    (0): Backbone(
      (body): HighResolutionNet(
        (conv1): Conv2d(3, 64, kernel_size=(3, 3), stride=(2, 2), padding=(1, 1), bias=False)
        (bn1): FrozenBatchNorm2d()
        (conv2): Conv2d(64, 64, kernel_size=(3, 3), stride=(2, 2), padding=(1, 1), bias=False)
        (bn2): FrozenBatchNorm2d()
        (relu): ReLU(inplace=True)
        (layer1): Sequential(
          (0): Bottleneck(
            (conv1): Conv2d(64, 64, kernel_size=(1, 1), stride=(1, 1), bias=False)
            (bn1): FrozenBatchNorm2d()
            (conv2): Conv2d(64, 64, kernel_size=(3, 3), stride=(1, 1), padding=(1, 1), bias=False)
            (bn2): FrozenBatchNorm2d()
            (conv3): Conv2d(64, 256, kernel_size=(1, 1), stride=(1, 1), bias=False)
            (bn3): FrozenBatchNorm2d()
            (relu): ReLU(inplace=True)
            (downsample): Sequential(
              (0): Conv2d(64, 256, kernel_size=(1, 1), stride=(1, 1), bias=False)
              (1): FrozenBatchNorm2d()
            )
          )
          (1): Bottleneck(
            (conv1): Conv2d(256, 64, kernel_size=(1, 1), stride=(1, 1), bias=False)
            (bn1): FrozenBatchNorm2d()
            (conv2): Conv2d(64, 64, kernel_size=(3, 3), stride=(1, 1), padding=(1, 1), bias=False)
            (bn2): FrozenBatchNorm2d()
            (conv3): Conv2d(64, 256, kernel_size=(1, 1), stride=(1, 1), bias=False)
            (bn3): FrozenBatchNorm2d()
            (relu): ReLU(inplace=True)
          )
          (2): Bottleneck(
            (conv1): Conv2d(256, 64, kernel_size=(1, 1), stride=(1, 1), bias=False)
            (bn1): FrozenBatchNorm2d()
            (conv2): Conv2d(64, 64, kernel_size=(3, 3), stride=(1, 1), padding=(1, 1), bias=False)
            (bn2): FrozenBatchNorm2d()
            (conv3): Conv2d(64, 256, kernel_size=(1, 1), stride=(1, 1), bias=False)
            (bn3): FrozenBatchNorm2d()
            (relu): ReLU(inplace=True)
          )
          (3): Bottleneck(
            (conv1): Conv2d(256, 64, kernel_size=(1, 1), stride=(1, 1), bias=False)
            (bn1): FrozenBatchNorm2d()
            (conv2): Conv2d(64, 64, kernel_size=(3, 3), stride=(1, 1), padding=(1, 1), bias=False)
            (bn2): FrozenBatchNorm2d()
            (conv3): Conv2d(64, 256, kernel_size=(1, 1), stride=(1, 1), bias=False)
            (bn3): FrozenBatchNorm2d()
            (relu): ReLU(inplace=True)
          )
        )
        (transition1): ModuleList(
          (0): Sequential(
            (0): Conv2d(256, 18, kernel_size=(3, 3), stride=(1, 1), padding=(1, 1), bias=False)
            (1): FrozenBatchNorm2d()
            (2): ReLU(inplace=True)
          )
          (1): Sequential(
            (0): Sequential(
              (0): Conv2d(256, 36, kernel_size=(3, 3), stride=(2, 2), padding=(1, 1), bias=False)
              (1): FrozenBatchNorm2d()
              (2): ReLU(inplace=True)
            )
          )
        )
        (stage2): Sequential(
          (0): HighResolutionModule(
            (branches): ModuleList(
              (0): Sequential(
                (0): BasicBlock(
                  (conv1): Conv2d(18, 18, kernel_size=(3, 3), stride=(1, 1), padding=(1, 1), bias=False)
                  (bn1): FrozenBatchNorm2d()
                  (relu): ReLU(inplace=True)
                  (conv2): Conv2d(18, 18, kernel_size=(3, 3), stride=(1, 1), padding=(1, 1), bias=False)
                  (bn2): FrozenBatchNorm2d()
                )
                (1): BasicBlock(
                  (conv1): Conv2d(18, 18, kernel_size=(3, 3), stride=(1, 1), padding=(1, 1), bias=False)
                  (bn1): FrozenBatchNorm2d()
                  (relu): ReLU(inplace=True)
                  (conv2): Conv2d(18, 18, kernel_size=(3, 3), stride=(1, 1), padding=(1, 1), bias=False)
                  (bn2): FrozenBatchNorm2d()
                )
                (2): BasicBlock(
                  (conv1): Conv2d(18, 18, kernel_size=(3, 3), stride=(1, 1), padding=(1, 1), bias=False)
                  (bn1): FrozenBatchNorm2d()
                  (relu): ReLU(inplace=True)
                  (conv2): Conv2d(18, 18, kernel_size=(3, 3), stride=(1, 1), padding=(1, 1), bias=False)
                  (bn2): FrozenBatchNorm2d()
                )
                (3): BasicBlock(
                  (conv1): Conv2d(18, 18, kernel_size=(3, 3), stride=(1, 1), padding=(1, 1), bias=False)
                  (bn1): FrozenBatchNorm2d()
                  (relu): ReLU(inplace=True)
                  (conv2): Conv2d(18, 18, kernel_size=(3, 3), stride=(1, 1), padding=(1, 1), bias=False)
                  (bn2): FrozenBatchNorm2d()
                )
              )
              (1): Sequential(
                (0): BasicBlock(
                  (conv1): Conv2d(36, 36, kernel_size=(3, 3), stride=(1, 1), padding=(1, 1), bias=False)
                  (bn1): FrozenBatchNorm2d()
                  (relu): ReLU(inplace=True)
                  (conv2): Conv2d(36, 36, kernel_size=(3, 3), stride=(1, 1), padding=(1, 1), bias=False)
                  (bn2): FrozenBatchNorm2d()
                )
                (1): BasicBlock(
                  (conv1): Conv2d(36, 36, kernel_size=(3, 3), stride=(1, 1), padding=(1, 1), bias=False)
                  (bn1): FrozenBatchNorm2d()
                  (relu): ReLU(inplace=True)
                  (conv2): Conv2d(36, 36, kernel_size=(3, 3), stride=(1, 1), padding=(1, 1), bias=False)
                  (bn2): FrozenBatchNorm2d()
                )
                (2): BasicBlock(
                  (conv1): Conv2d(36, 36, kernel_size=(3, 3), stride=(1, 1), padding=(1, 1), bias=False)
                  (bn1): FrozenBatchNorm2d()
                  (relu): ReLU(inplace=True)
                  (conv2): Conv2d(36, 36, kernel_size=(3, 3), stride=(1, 1), padding=(1, 1), bias=False)
                  (bn2): FrozenBatchNorm2d()
                )
                (3): BasicBlock(
                  (conv1): Conv2d(36, 36, kernel_size=(3, 3), stride=(1, 1), padding=(1, 1), bias=False)
                  (bn1): FrozenBatchNorm2d()
                  (relu): ReLU(inplace=True)
                  (conv2): Conv2d(36, 36, kernel_size=(3, 3), stride=(1, 1), padding=(1, 1), bias=False)
                  (bn2): FrozenBatchNorm2d()
                )
              )
            )
            (fuse_layers): ModuleList(
              (0): ModuleList(
                (0): None
                (1): Sequential(
                  (0): Conv2d(36, 18, kernel_size=(1, 1), stride=(1, 1), bias=False)
                  (1): FrozenBatchNorm2d()
                )
              )
              (1): ModuleList(
                (0): Sequential(
                  (0): Sequential(
                    (0): Conv2d(18, 36, kernel_size=(3, 3), stride=(2, 2), padding=(1, 1), bias=False)
                    (1): FrozenBatchNorm2d()
                  )
                )
                (1): None
              )
            )
            (relu): ReLU(inplace=True)
          )
        )
        (transition2): ModuleList(
          (0): None
          (1): None
          (2): Sequential(
            (0): Sequential(
              (0): Conv2d(36, 72, kernel_size=(3, 3), stride=(2, 2), padding=(1, 1), bias=False)
              (1): FrozenBatchNorm2d()
              (2): ReLU(inplace=True)
            )
          )
        )
        (stage3): Sequential(
          (0): HighResolutionModule(
            (branches): ModuleList(
              (0): Sequential(
                (0): BasicBlock(
                  (conv1): Conv2d(18, 18, kernel_size=(3, 3), stride=(1, 1), padding=(1, 1), bias=False)
                  (bn1): FrozenBatchNorm2d()
                  (relu): ReLU(inplace=True)
                  (conv2): Conv2d(18, 18, kernel_size=(3, 3), stride=(1, 1), padding=(1, 1), bias=False)
                  (bn2): FrozenBatchNorm2d()
                )
                (1): BasicBlock(
                  (conv1): Conv2d(18, 18, kernel_size=(3, 3), stride=(1, 1), padding=(1, 1), bias=False)
                  (bn1): FrozenBatchNorm2d()
                  (relu): ReLU(inplace=True)
                  (conv2): Conv2d(18, 18, kernel_size=(3, 3), stride=(1, 1), padding=(1, 1), bias=False)
                  (bn2): FrozenBatchNorm2d()
                )
                (2): BasicBlock(
                  (conv1): Conv2d(18, 18, kernel_size=(3, 3), stride=(1, 1), padding=(1, 1), bias=False)
                  (bn1): FrozenBatchNorm2d()
                  (relu): ReLU(inplace=True)
                  (conv2): Conv2d(18, 18, kernel_size=(3, 3), stride=(1, 1), padding=(1, 1), bias=False)
                  (bn2): FrozenBatchNorm2d()
                )
                (3): BasicBlock(
                  (conv1): Conv2d(18, 18, kernel_size=(3, 3), stride=(1, 1), padding=(1, 1), bias=False)
                  (bn1): FrozenBatchNorm2d()
                  (relu): ReLU(inplace=True)
                  (conv2): Conv2d(18, 18, kernel_size=(3, 3), stride=(1, 1), padding=(1, 1), bias=False)
                  (bn2): FrozenBatchNorm2d()
                )
              )
              (1): Sequential(
                (0): BasicBlock(
                  (conv1): Conv2d(36, 36, kernel_size=(3, 3), stride=(1, 1), padding=(1, 1), bias=False)
                  (bn1): FrozenBatchNorm2d()
                  (relu): ReLU(inplace=True)
                  (conv2): Conv2d(36, 36, kernel_size=(3, 3), stride=(1, 1), padding=(1, 1), bias=False)
                  (bn2): FrozenBatchNorm2d()
                )
                (1): BasicBlock(
                  (conv1): Conv2d(36, 36, kernel_size=(3, 3), stride=(1, 1), padding=(1, 1), bias=False)
                  (bn1): FrozenBatchNorm2d()
                  (relu): ReLU(inplace=True)
                  (conv2): Conv2d(36, 36, kernel_size=(3, 3), stride=(1, 1), padding=(1, 1), bias=False)
                  (bn2): FrozenBatchNorm2d()
                )
                (2): BasicBlock(
                  (conv1): Conv2d(36, 36, kernel_size=(3, 3), stride=(1, 1), padding=(1, 1), bias=False)
                  (bn1): FrozenBatchNorm2d()
                  (relu): ReLU(inplace=True)
                  (conv2): Conv2d(36, 36, kernel_size=(3, 3), stride=(1, 1), padding=(1, 1), bias=False)
                  (bn2): FrozenBatchNorm2d()
                )
                (3): BasicBlock(
                  (conv1): Conv2d(36, 36, kernel_size=(3, 3), stride=(1, 1), padding=(1, 1), bias=False)
                  (bn1): FrozenBatchNorm2d()
                  (relu): ReLU(inplace=True)
                  (conv2): Conv2d(36, 36, kernel_size=(3, 3), stride=(1, 1), padding=(1, 1), bias=False)
                  (bn2): FrozenBatchNorm2d()
                )
              )
              (2): Sequential(
                (0): BasicBlock(
                  (conv1): Conv2d(72, 72, kernel_size=(3, 3), stride=(1, 1), padding=(1, 1), bias=False)
                  (bn1): FrozenBatchNorm2d()
                  (relu): ReLU(inplace=True)
                  (conv2): Conv2d(72, 72, kernel_size=(3, 3), stride=(1, 1), padding=(1, 1), bias=False)
                  (bn2): FrozenBatchNorm2d()
                )
                (1): BasicBlock(
                  (conv1): Conv2d(72, 72, kernel_size=(3, 3), stride=(1, 1), padding=(1, 1), bias=False)
                  (bn1): FrozenBatchNorm2d()
                  (relu): ReLU(inplace=True)
                  (conv2): Conv2d(72, 72, kernel_size=(3, 3), stride=(1, 1), padding=(1, 1), bias=False)
                  (bn2): FrozenBatchNorm2d()
                )
                (2): BasicBlock(
                  (conv1): Conv2d(72, 72, kernel_size=(3, 3), stride=(1, 1), padding=(1, 1), bias=False)
                  (bn1): FrozenBatchNorm2d()
                  (relu): ReLU(inplace=True)
                  (conv2): Conv2d(72, 72, kernel_size=(3, 3), stride=(1, 1), padding=(1, 1), bias=False)
                  (bn2): FrozenBatchNorm2d()
                )
                (3): BasicBlock(
                  (conv1): Conv2d(72, 72, kernel_size=(3, 3), stride=(1, 1), padding=(1, 1), bias=False)
                  (bn1): FrozenBatchNorm2d()
                  (relu): ReLU(inplace=True)
                  (conv2): Conv2d(72, 72, kernel_size=(3, 3), stride=(1, 1), padding=(1, 1), bias=False)
                  (bn2): FrozenBatchNorm2d()
                )
              )
            )
            (fuse_layers): ModuleList(
              (0): ModuleList(
                (0): None
                (1): Sequential(
                  (0): Conv2d(36, 18, kernel_size=(1, 1), stride=(1, 1), bias=False)
                  (1): FrozenBatchNorm2d()
                )
                (2): Sequential(
                  (0): Conv2d(72, 18, kernel_size=(1, 1), stride=(1, 1), bias=False)
                  (1): FrozenBatchNorm2d()
                )
              )
              (1): ModuleList(
                (0): Sequential(
                  (0): Sequential(
                    (0): Conv2d(18, 36, kernel_size=(3, 3), stride=(2, 2), padding=(1, 1), bias=False)
                    (1): FrozenBatchNorm2d()
                  )
                )
                (1): None
                (2): Sequential(
                  (0): Conv2d(72, 36, kernel_size=(1, 1), stride=(1, 1), bias=False)
                  (1): FrozenBatchNorm2d()
                )
              )
              (2): ModuleList(
                (0): Sequential(
                  (0): Sequential(
                    (0): Conv2d(18, 18, kernel_size=(3, 3), stride=(2, 2), padding=(1, 1), bias=False)
                    (1): FrozenBatchNorm2d()
                    (2): ReLU(inplace=True)
                  )
                  (1): Sequential(
                    (0): Conv2d(18, 72, kernel_size=(3, 3), stride=(2, 2), padding=(1, 1), bias=False)
                    (1): FrozenBatchNorm2d()
                  )
                )
                (1): Sequential(
                  (0): Sequential(
                    (0): Conv2d(36, 72, kernel_size=(3, 3), stride=(2, 2), padding=(1, 1), bias=False)
                    (1): FrozenBatchNorm2d()
                  )
                )
                (2): None
              )
            )
            (relu): ReLU(inplace=True)
          )
          (1): HighResolutionModule(
            (branches): ModuleList(
              (0): Sequential(
                (0): BasicBlock(
                  (conv1): Conv2d(18, 18, kernel_size=(3, 3), stride=(1, 1), padding=(1, 1), bias=False)
                  (bn1): FrozenBatchNorm2d()
                  (relu): ReLU(inplace=True)
                  (conv2): Conv2d(18, 18, kernel_size=(3, 3), stride=(1, 1), padding=(1, 1), bias=False)
                  (bn2): FrozenBatchNorm2d()
                )
                (1): BasicBlock(
                  (conv1): Conv2d(18, 18, kernel_size=(3, 3), stride=(1, 1), padding=(1, 1), bias=False)
                  (bn1): FrozenBatchNorm2d()
                  (relu): ReLU(inplace=True)
                  (conv2): Conv2d(18, 18, kernel_size=(3, 3), stride=(1, 1), padding=(1, 1), bias=False)
                  (bn2): FrozenBatchNorm2d()
                )
                (2): BasicBlock(
                  (conv1): Conv2d(18, 18, kernel_size=(3, 3), stride=(1, 1), padding=(1, 1), bias=False)
                  (bn1): FrozenBatchNorm2d()
                  (relu): ReLU(inplace=True)
                  (conv2): Conv2d(18, 18, kernel_size=(3, 3), stride=(1, 1), padding=(1, 1), bias=False)
                  (bn2): FrozenBatchNorm2d()
                )
                (3): BasicBlock(
                  (conv1): Conv2d(18, 18, kernel_size=(3, 3), stride=(1, 1), padding=(1, 1), bias=False)
                  (bn1): FrozenBatchNorm2d()
                  (relu): ReLU(inplace=True)
                  (conv2): Conv2d(18, 18, kernel_size=(3, 3), stride=(1, 1), padding=(1, 1), bias=False)
                  (bn2): FrozenBatchNorm2d()
                )
              )
              (1): Sequential(
                (0): BasicBlock(
                  (conv1): Conv2d(36, 36, kernel_size=(3, 3), stride=(1, 1), padding=(1, 1), bias=False)
                  (bn1): FrozenBatchNorm2d()
                  (relu): ReLU(inplace=True)
                  (conv2): Conv2d(36, 36, kernel_size=(3, 3), stride=(1, 1), padding=(1, 1), bias=False)
                  (bn2): FrozenBatchNorm2d()
                )
                (1): BasicBlock(
                  (conv1): Conv2d(36, 36, kernel_size=(3, 3), stride=(1, 1), padding=(1, 1), bias=False)
                  (bn1): FrozenBatchNorm2d()
                  (relu): ReLU(inplace=True)
                  (conv2): Conv2d(36, 36, kernel_size=(3, 3), stride=(1, 1), padding=(1, 1), bias=False)
                  (bn2): FrozenBatchNorm2d()
                )
                (2): BasicBlock(
                  (conv1): Conv2d(36, 36, kernel_size=(3, 3), stride=(1, 1), padding=(1, 1), bias=False)
                  (bn1): FrozenBatchNorm2d()
                  (relu): ReLU(inplace=True)
                  (conv2): Conv2d(36, 36, kernel_size=(3, 3), stride=(1, 1), padding=(1, 1), bias=False)
                  (bn2): FrozenBatchNorm2d()
                )
                (3): BasicBlock(
                  (conv1): Conv2d(36, 36, kernel_size=(3, 3), stride=(1, 1), padding=(1, 1), bias=False)
                  (bn1): FrozenBatchNorm2d()
                  (relu): ReLU(inplace=True)
                  (conv2): Conv2d(36, 36, kernel_size=(3, 3), stride=(1, 1), padding=(1, 1), bias=False)
                  (bn2): FrozenBatchNorm2d()
                )
              )
              (2): Sequential(
                (0): BasicBlock(
                  (conv1): Conv2d(72, 72, kernel_size=(3, 3), stride=(1, 1), padding=(1, 1), bias=False)
                  (bn1): FrozenBatchNorm2d()
                  (relu): ReLU(inplace=True)
                  (conv2): Conv2d(72, 72, kernel_size=(3, 3), stride=(1, 1), padding=(1, 1), bias=False)
                  (bn2): FrozenBatchNorm2d()
                )
                (1): BasicBlock(
                  (conv1): Conv2d(72, 72, kernel_size=(3, 3), stride=(1, 1), padding=(1, 1), bias=False)
                  (bn1): FrozenBatchNorm2d()
                  (relu): ReLU(inplace=True)
                  (conv2): Conv2d(72, 72, kernel_size=(3, 3), stride=(1, 1), padding=(1, 1), bias=False)
                  (bn2): FrozenBatchNorm2d()
                )
                (2): BasicBlock(
                  (conv1): Conv2d(72, 72, kernel_size=(3, 3), stride=(1, 1), padding=(1, 1), bias=False)
                  (bn1): FrozenBatchNorm2d()
                  (relu): ReLU(inplace=True)
                  (conv2): Conv2d(72, 72, kernel_size=(3, 3), stride=(1, 1), padding=(1, 1), bias=False)
                  (bn2): FrozenBatchNorm2d()
                )
                (3): BasicBlock(
                  (conv1): Conv2d(72, 72, kernel_size=(3, 3), stride=(1, 1), padding=(1, 1), bias=False)
                  (bn1): FrozenBatchNorm2d()
                  (relu): ReLU(inplace=True)
                  (conv2): Conv2d(72, 72, kernel_size=(3, 3), stride=(1, 1), padding=(1, 1), bias=False)
                  (bn2): FrozenBatchNorm2d()
                )
              )
            )
            (fuse_layers): ModuleList(
              (0): ModuleList(
                (0): None
                (1): Sequential(
                  (0): Conv2d(36, 18, kernel_size=(1, 1), stride=(1, 1), bias=False)
                  (1): FrozenBatchNorm2d()
                )
                (2): Sequential(
                  (0): Conv2d(72, 18, kernel_size=(1, 1), stride=(1, 1), bias=False)
                  (1): FrozenBatchNorm2d()
                )
              )
              (1): ModuleList(
                (0): Sequential(
                  (0): Sequential(
                    (0): Conv2d(18, 36, kernel_size=(3, 3), stride=(2, 2), padding=(1, 1), bias=False)
                    (1): FrozenBatchNorm2d()
                  )
                )
                (1): None
                (2): Sequential(
                  (0): Conv2d(72, 36, kernel_size=(1, 1), stride=(1, 1), bias=False)
                  (1): FrozenBatchNorm2d()
                )
              )
              (2): ModuleList(
                (0): Sequential(
                  (0): Sequential(
                    (0): Conv2d(18, 18, kernel_size=(3, 3), stride=(2, 2), padding=(1, 1), bias=False)
                    (1): FrozenBatchNorm2d()
                    (2): ReLU(inplace=True)
                  )
                  (1): Sequential(
                    (0): Conv2d(18, 72, kernel_size=(3, 3), stride=(2, 2), padding=(1, 1), bias=False)
                    (1): FrozenBatchNorm2d()
                  )
                )
                (1): Sequential(
                  (0): Sequential(
                    (0): Conv2d(36, 72, kernel_size=(3, 3), stride=(2, 2), padding=(1, 1), bias=False)
                    (1): FrozenBatchNorm2d()
                  )
                )
                (2): None
              )
            )
            (relu): ReLU(inplace=True)
          )
          (2): HighResolutionModule(
            (branches): ModuleList(
              (0): Sequential(
                (0): BasicBlock(
                  (conv1): Conv2d(18, 18, kernel_size=(3, 3), stride=(1, 1), padding=(1, 1), bias=False)
                  (bn1): FrozenBatchNorm2d()
                  (relu): ReLU(inplace=True)
                  (conv2): Conv2d(18, 18, kernel_size=(3, 3), stride=(1, 1), padding=(1, 1), bias=False)
                  (bn2): FrozenBatchNorm2d()
                )
                (1): BasicBlock(
                  (conv1): Conv2d(18, 18, kernel_size=(3, 3), stride=(1, 1), padding=(1, 1), bias=False)
                  (bn1): FrozenBatchNorm2d()
                  (relu): ReLU(inplace=True)
                  (conv2): Conv2d(18, 18, kernel_size=(3, 3), stride=(1, 1), padding=(1, 1), bias=False)
                  (bn2): FrozenBatchNorm2d()
                )
                (2): BasicBlock(
                  (conv1): Conv2d(18, 18, kernel_size=(3, 3), stride=(1, 1), padding=(1, 1), bias=False)
                  (bn1): FrozenBatchNorm2d()
                  (relu): ReLU(inplace=True)
                  (conv2): Conv2d(18, 18, kernel_size=(3, 3), stride=(1, 1), padding=(1, 1), bias=False)
                  (bn2): FrozenBatchNorm2d()
                )
                (3): BasicBlock(
                  (conv1): Conv2d(18, 18, kernel_size=(3, 3), stride=(1, 1), padding=(1, 1), bias=False)
                  (bn1): FrozenBatchNorm2d()
                  (relu): ReLU(inplace=True)
                  (conv2): Conv2d(18, 18, kernel_size=(3, 3), stride=(1, 1), padding=(1, 1), bias=False)
                  (bn2): FrozenBatchNorm2d()
                )
              )
              (1): Sequential(
                (0): BasicBlock(
                  (conv1): Conv2d(36, 36, kernel_size=(3, 3), stride=(1, 1), padding=(1, 1), bias=False)
                  (bn1): FrozenBatchNorm2d()
                  (relu): ReLU(inplace=True)
                  (conv2): Conv2d(36, 36, kernel_size=(3, 3), stride=(1, 1), padding=(1, 1), bias=False)
                  (bn2): FrozenBatchNorm2d()
                )
                (1): BasicBlock(
                  (conv1): Conv2d(36, 36, kernel_size=(3, 3), stride=(1, 1), padding=(1, 1), bias=False)
                  (bn1): FrozenBatchNorm2d()
                  (relu): ReLU(inplace=True)
                  (conv2): Conv2d(36, 36, kernel_size=(3, 3), stride=(1, 1), padding=(1, 1), bias=False)
                  (bn2): FrozenBatchNorm2d()
                )
                (2): BasicBlock(
                  (conv1): Conv2d(36, 36, kernel_size=(3, 3), stride=(1, 1), padding=(1, 1), bias=False)
                  (bn1): FrozenBatchNorm2d()
                  (relu): ReLU(inplace=True)
                  (conv2): Conv2d(36, 36, kernel_size=(3, 3), stride=(1, 1), padding=(1, 1), bias=False)
                  (bn2): FrozenBatchNorm2d()
                )
                (3): BasicBlock(
                  (conv1): Conv2d(36, 36, kernel_size=(3, 3), stride=(1, 1), padding=(1, 1), bias=False)
                  (bn1): FrozenBatchNorm2d()
                  (relu): ReLU(inplace=True)
                  (conv2): Conv2d(36, 36, kernel_size=(3, 3), stride=(1, 1), padding=(1, 1), bias=False)
                  (bn2): FrozenBatchNorm2d()
                )
              )
              (2): Sequential(
                (0): BasicBlock(
                  (conv1): Conv2d(72, 72, kernel_size=(3, 3), stride=(1, 1), padding=(1, 1), bias=False)
                  (bn1): FrozenBatchNorm2d()
                  (relu): ReLU(inplace=True)
                  (conv2): Conv2d(72, 72, kernel_size=(3, 3), stride=(1, 1), padding=(1, 1), bias=False)
                  (bn2): FrozenBatchNorm2d()
                )
                (1): BasicBlock(
                  (conv1): Conv2d(72, 72, kernel_size=(3, 3), stride=(1, 1), padding=(1, 1), bias=False)
                  (bn1): FrozenBatchNorm2d()
                  (relu): ReLU(inplace=True)
                  (conv2): Conv2d(72, 72, kernel_size=(3, 3), stride=(1, 1), padding=(1, 1), bias=False)
                  (bn2): FrozenBatchNorm2d()
                )
                (2): BasicBlock(
                  (conv1): Conv2d(72, 72, kernel_size=(3, 3), stride=(1, 1), padding=(1, 1), bias=False)
                  (bn1): FrozenBatchNorm2d()
                  (relu): ReLU(inplace=True)
                  (conv2): Conv2d(72, 72, kernel_size=(3, 3), stride=(1, 1), padding=(1, 1), bias=False)
                  (bn2): FrozenBatchNorm2d()
                )
                (3): BasicBlock(
                  (conv1): Conv2d(72, 72, kernel_size=(3, 3), stride=(1, 1), padding=(1, 1), bias=False)
                  (bn1): FrozenBatchNorm2d()
                  (relu): ReLU(inplace=True)
                  (conv2): Conv2d(72, 72, kernel_size=(3, 3), stride=(1, 1), padding=(1, 1), bias=False)
                  (bn2): FrozenBatchNorm2d()
                )
              )
            )
            (fuse_layers): ModuleList(
              (0): ModuleList(
                (0): None
                (1): Sequential(
                  (0): Conv2d(36, 18, kernel_size=(1, 1), stride=(1, 1), bias=False)
                  (1): FrozenBatchNorm2d()
                )
                (2): Sequential(
                  (0): Conv2d(72, 18, kernel_size=(1, 1), stride=(1, 1), bias=False)
                  (1): FrozenBatchNorm2d()
                )
              )
              (1): ModuleList(
                (0): Sequential(
                  (0): Sequential(
                    (0): Conv2d(18, 36, kernel_size=(3, 3), stride=(2, 2), padding=(1, 1), bias=False)
                    (1): FrozenBatchNorm2d()
                  )
                )
                (1): None
                (2): Sequential(
                  (0): Conv2d(72, 36, kernel_size=(1, 1), stride=(1, 1), bias=False)
                  (1): FrozenBatchNorm2d()
                )
              )
              (2): ModuleList(
                (0): Sequential(
                  (0): Sequential(
                    (0): Conv2d(18, 18, kernel_size=(3, 3), stride=(2, 2), padding=(1, 1), bias=False)
                    (1): FrozenBatchNorm2d()
                    (2): ReLU(inplace=True)
                  )
                  (1): Sequential(
                    (0): Conv2d(18, 72, kernel_size=(3, 3), stride=(2, 2), padding=(1, 1), bias=False)
                    (1): FrozenBatchNorm2d()
                  )
                )
                (1): Sequential(
                  (0): Sequential(
                    (0): Conv2d(36, 72, kernel_size=(3, 3), stride=(2, 2), padding=(1, 1), bias=False)
                    (1): FrozenBatchNorm2d()
                  )
                )
                (2): None
              )
            )
            (relu): ReLU(inplace=True)
          )
          (3): HighResolutionModule(
            (branches): ModuleList(
              (0): Sequential(
                (0): BasicBlock(
                  (conv1): Conv2d(18, 18, kernel_size=(3, 3), stride=(1, 1), padding=(1, 1), bias=False)
                  (bn1): FrozenBatchNorm2d()
                  (relu): ReLU(inplace=True)
                  (conv2): Conv2d(18, 18, kernel_size=(3, 3), stride=(1, 1), padding=(1, 1), bias=False)
                  (bn2): FrozenBatchNorm2d()
                )
                (1): BasicBlock(
                  (conv1): Conv2d(18, 18, kernel_size=(3, 3), stride=(1, 1), padding=(1, 1), bias=False)
                  (bn1): FrozenBatchNorm2d()
                  (relu): ReLU(inplace=True)
                  (conv2): Conv2d(18, 18, kernel_size=(3, 3), stride=(1, 1), padding=(1, 1), bias=False)
                  (bn2): FrozenBatchNorm2d()
                )
                (2): BasicBlock(
                  (conv1): Conv2d(18, 18, kernel_size=(3, 3), stride=(1, 1), padding=(1, 1), bias=False)
                  (bn1): FrozenBatchNorm2d()
                  (relu): ReLU(inplace=True)
                  (conv2): Conv2d(18, 18, kernel_size=(3, 3), stride=(1, 1), padding=(1, 1), bias=False)
                  (bn2): FrozenBatchNorm2d()
                )
                (3): BasicBlock(
                  (conv1): Conv2d(18, 18, kernel_size=(3, 3), stride=(1, 1), padding=(1, 1), bias=False)
                  (bn1): FrozenBatchNorm2d()
                  (relu): ReLU(inplace=True)
                  (conv2): Conv2d(18, 18, kernel_size=(3, 3), stride=(1, 1), padding=(1, 1), bias=False)
                  (bn2): FrozenBatchNorm2d()
                )
              )
              (1): Sequential(
                (0): BasicBlock(
                  (conv1): Conv2d(36, 36, kernel_size=(3, 3), stride=(1, 1), padding=(1, 1), bias=False)
                  (bn1): FrozenBatchNorm2d()
                  (relu): ReLU(inplace=True)
                  (conv2): Conv2d(36, 36, kernel_size=(3, 3), stride=(1, 1), padding=(1, 1), bias=False)
                  (bn2): FrozenBatchNorm2d()
                )
                (1): BasicBlock(
                  (conv1): Conv2d(36, 36, kernel_size=(3, 3), stride=(1, 1), padding=(1, 1), bias=False)
                  (bn1): FrozenBatchNorm2d()
                  (relu): ReLU(inplace=True)
                  (conv2): Conv2d(36, 36, kernel_size=(3, 3), stride=(1, 1), padding=(1, 1), bias=False)
                  (bn2): FrozenBatchNorm2d()
                )
                (2): BasicBlock(
                  (conv1): Conv2d(36, 36, kernel_size=(3, 3), stride=(1, 1), padding=(1, 1), bias=False)
                  (bn1): FrozenBatchNorm2d()
                  (relu): ReLU(inplace=True)
                  (conv2): Conv2d(36, 36, kernel_size=(3, 3), stride=(1, 1), padding=(1, 1), bias=False)
                  (bn2): FrozenBatchNorm2d()
                )
                (3): BasicBlock(
                  (conv1): Conv2d(36, 36, kernel_size=(3, 3), stride=(1, 1), padding=(1, 1), bias=False)
                  (bn1): FrozenBatchNorm2d()
                  (relu): ReLU(inplace=True)
                  (conv2): Conv2d(36, 36, kernel_size=(3, 3), stride=(1, 1), padding=(1, 1), bias=False)
                  (bn2): FrozenBatchNorm2d()
                )
              )
              (2): Sequential(
                (0): BasicBlock(
                  (conv1): Conv2d(72, 72, kernel_size=(3, 3), stride=(1, 1), padding=(1, 1), bias=False)
                  (bn1): FrozenBatchNorm2d()
                  (relu): ReLU(inplace=True)
                  (conv2): Conv2d(72, 72, kernel_size=(3, 3), stride=(1, 1), padding=(1, 1), bias=False)
                  (bn2): FrozenBatchNorm2d()
                )
                (1): BasicBlock(
                  (conv1): Conv2d(72, 72, kernel_size=(3, 3), stride=(1, 1), padding=(1, 1), bias=False)
                  (bn1): FrozenBatchNorm2d()
                  (relu): ReLU(inplace=True)
                  (conv2): Conv2d(72, 72, kernel_size=(3, 3), stride=(1, 1), padding=(1, 1), bias=False)
                  (bn2): FrozenBatchNorm2d()
                )
                (2): BasicBlock(
                  (conv1): Conv2d(72, 72, kernel_size=(3, 3), stride=(1, 1), padding=(1, 1), bias=False)
                  (bn1): FrozenBatchNorm2d()
                  (relu): ReLU(inplace=True)
                  (conv2): Conv2d(72, 72, kernel_size=(3, 3), stride=(1, 1), padding=(1, 1), bias=False)
                  (bn2): FrozenBatchNorm2d()
                )
                (3): BasicBlock(
                  (conv1): Conv2d(72, 72, kernel_size=(3, 3), stride=(1, 1), padding=(1, 1), bias=False)
                  (bn1): FrozenBatchNorm2d()
                  (relu): ReLU(inplace=True)
                  (conv2): Conv2d(72, 72, kernel_size=(3, 3), stride=(1, 1), padding=(1, 1), bias=False)
                  (bn2): FrozenBatchNorm2d()
                )
              )
            )
            (fuse_layers): ModuleList(
              (0): ModuleList(
                (0): None
                (1): Sequential(
                  (0): Conv2d(36, 18, kernel_size=(1, 1), stride=(1, 1), bias=False)
                  (1): FrozenBatchNorm2d()
                )
                (2): Sequential(
                  (0): Conv2d(72, 18, kernel_size=(1, 1), stride=(1, 1), bias=False)
                  (1): FrozenBatchNorm2d()
                )
              )
              (1): ModuleList(
                (0): Sequential(
                  (0): Sequential(
                    (0): Conv2d(18, 36, kernel_size=(3, 3), stride=(2, 2), padding=(1, 1), bias=False)
                    (1): FrozenBatchNorm2d()
                  )
                )
                (1): None
                (2): Sequential(
                  (0): Conv2d(72, 36, kernel_size=(1, 1), stride=(1, 1), bias=False)
                  (1): FrozenBatchNorm2d()
                )
              )
              (2): ModuleList(
                (0): Sequential(
                  (0): Sequential(
                    (0): Conv2d(18, 18, kernel_size=(3, 3), stride=(2, 2), padding=(1, 1), bias=False)
                    (1): FrozenBatchNorm2d()
                    (2): ReLU(inplace=True)
                  )
                  (1): Sequential(
                    (0): Conv2d(18, 72, kernel_size=(3, 3), stride=(2, 2), padding=(1, 1), bias=False)
                    (1): FrozenBatchNorm2d()
                  )
                )
                (1): Sequential(
                  (0): Sequential(
                    (0): Conv2d(36, 72, kernel_size=(3, 3), stride=(2, 2), padding=(1, 1), bias=False)
                    (1): FrozenBatchNorm2d()
                  )
                )
                (2): None
              )
            )
            (relu): ReLU(inplace=True)
          )
        )
        (transition3): ModuleList(
          (0): None
          (1): None
          (2): None
          (3): Sequential(
            (0): Sequential(
              (0): Conv2d(72, 144, kernel_size=(3, 3), stride=(2, 2), padding=(1, 1), bias=False)
              (1): FrozenBatchNorm2d()
              (2): ReLU(inplace=True)
            )
          )
        )
        (stage4): Sequential(
          (0): HighResolutionModule(
            (branches): ModuleList(
              (0): Sequential(
                (0): BasicBlock(
                  (conv1): Conv2d(18, 18, kernel_size=(3, 3), stride=(1, 1), padding=(1, 1), bias=False)
                  (bn1): FrozenBatchNorm2d()
                  (relu): ReLU(inplace=True)
                  (conv2): Conv2d(18, 18, kernel_size=(3, 3), stride=(1, 1), padding=(1, 1), bias=False)
                  (bn2): FrozenBatchNorm2d()
                )
                (1): BasicBlock(
                  (conv1): Conv2d(18, 18, kernel_size=(3, 3), stride=(1, 1), padding=(1, 1), bias=False)
                  (bn1): FrozenBatchNorm2d()
                  (relu): ReLU(inplace=True)
                  (conv2): Conv2d(18, 18, kernel_size=(3, 3), stride=(1, 1), padding=(1, 1), bias=False)
                  (bn2): FrozenBatchNorm2d()
                )
                (2): BasicBlock(
                  (conv1): Conv2d(18, 18, kernel_size=(3, 3), stride=(1, 1), padding=(1, 1), bias=False)
                  (bn1): FrozenBatchNorm2d()
                  (relu): ReLU(inplace=True)
                  (conv2): Conv2d(18, 18, kernel_size=(3, 3), stride=(1, 1), padding=(1, 1), bias=False)
                  (bn2): FrozenBatchNorm2d()
                )
                (3): BasicBlock(
                  (conv1): Conv2d(18, 18, kernel_size=(3, 3), stride=(1, 1), padding=(1, 1), bias=False)
                  (bn1): FrozenBatchNorm2d()
                  (relu): ReLU(inplace=True)
                  (conv2): Conv2d(18, 18, kernel_size=(3, 3), stride=(1, 1), padding=(1, 1), bias=False)
                  (bn2): FrozenBatchNorm2d()
                )
              )
              (1): Sequential(
                (0): BasicBlock(
                  (conv1): Conv2d(36, 36, kernel_size=(3, 3), stride=(1, 1), padding=(1, 1), bias=False)
                  (bn1): FrozenBatchNorm2d()
                  (relu): ReLU(inplace=True)
                  (conv2): Conv2d(36, 36, kernel_size=(3, 3), stride=(1, 1), padding=(1, 1), bias=False)
                  (bn2): FrozenBatchNorm2d()
                )
                (1): BasicBlock(
                  (conv1): Conv2d(36, 36, kernel_size=(3, 3), stride=(1, 1), padding=(1, 1), bias=False)
                  (bn1): FrozenBatchNorm2d()
                  (relu): ReLU(inplace=True)
                  (conv2): Conv2d(36, 36, kernel_size=(3, 3), stride=(1, 1), padding=(1, 1), bias=False)
                  (bn2): FrozenBatchNorm2d()
                )
                (2): BasicBlock(
                  (conv1): Conv2d(36, 36, kernel_size=(3, 3), stride=(1, 1), padding=(1, 1), bias=False)
                  (bn1): FrozenBatchNorm2d()
                  (relu): ReLU(inplace=True)
                  (conv2): Conv2d(36, 36, kernel_size=(3, 3), stride=(1, 1), padding=(1, 1), bias=False)
                  (bn2): FrozenBatchNorm2d()
                )
                (3): BasicBlock(
                  (conv1): Conv2d(36, 36, kernel_size=(3, 3), stride=(1, 1), padding=(1, 1), bias=False)
                  (bn1): FrozenBatchNorm2d()
                  (relu): ReLU(inplace=True)
                  (conv2): Conv2d(36, 36, kernel_size=(3, 3), stride=(1, 1), padding=(1, 1), bias=False)
                  (bn2): FrozenBatchNorm2d()
                )
              )
              (2): Sequential(
                (0): BasicBlock(
                  (conv1): Conv2d(72, 72, kernel_size=(3, 3), stride=(1, 1), padding=(1, 1), bias=False)
                  (bn1): FrozenBatchNorm2d()
                  (relu): ReLU(inplace=True)
                  (conv2): Conv2d(72, 72, kernel_size=(3, 3), stride=(1, 1), padding=(1, 1), bias=False)
                  (bn2): FrozenBatchNorm2d()
                )
                (1): BasicBlock(
                  (conv1): Conv2d(72, 72, kernel_size=(3, 3), stride=(1, 1), padding=(1, 1), bias=False)
                  (bn1): FrozenBatchNorm2d()
                  (relu): ReLU(inplace=True)
                  (conv2): Conv2d(72, 72, kernel_size=(3, 3), stride=(1, 1), padding=(1, 1), bias=False)
                  (bn2): FrozenBatchNorm2d()
                )
                (2): BasicBlock(
                  (conv1): Conv2d(72, 72, kernel_size=(3, 3), stride=(1, 1), padding=(1, 1), bias=False)
                  (bn1): FrozenBatchNorm2d()
                  (relu): ReLU(inplace=True)
                  (conv2): Conv2d(72, 72, kernel_size=(3, 3), stride=(1, 1), padding=(1, 1), bias=False)
                  (bn2): FrozenBatchNorm2d()
                )
                (3): BasicBlock(
                  (conv1): Conv2d(72, 72, kernel_size=(3, 3), stride=(1, 1), padding=(1, 1), bias=False)
                  (bn1): FrozenBatchNorm2d()
                  (relu): ReLU(inplace=True)
                  (conv2): Conv2d(72, 72, kernel_size=(3, 3), stride=(1, 1), padding=(1, 1), bias=False)
                  (bn2): FrozenBatchNorm2d()
                )
              )
              (3): Sequential(
                (0): BasicBlock(
                  (conv1): Conv2d(144, 144, kernel_size=(3, 3), stride=(1, 1), padding=(1, 1), bias=False)
                  (bn1): FrozenBatchNorm2d()
                  (relu): ReLU(inplace=True)
                  (conv2): Conv2d(144, 144, kernel_size=(3, 3), stride=(1, 1), padding=(1, 1), bias=False)
                  (bn2): FrozenBatchNorm2d()
                )
                (1): BasicBlock(
                  (conv1): Conv2d(144, 144, kernel_size=(3, 3), stride=(1, 1), padding=(1, 1), bias=False)
                  (bn1): FrozenBatchNorm2d()
                  (relu): ReLU(inplace=True)
                  (conv2): Conv2d(144, 144, kernel_size=(3, 3), stride=(1, 1), padding=(1, 1), bias=False)
                  (bn2): FrozenBatchNorm2d()
                )
                (2): BasicBlock(
                  (conv1): Conv2d(144, 144, kernel_size=(3, 3), stride=(1, 1), padding=(1, 1), bias=False)
                  (bn1): FrozenBatchNorm2d()
                  (relu): ReLU(inplace=True)
                  (conv2): Conv2d(144, 144, kernel_size=(3, 3), stride=(1, 1), padding=(1, 1), bias=False)
                  (bn2): FrozenBatchNorm2d()
                )
                (3): BasicBlock(
                  (conv1): Conv2d(144, 144, kernel_size=(3, 3), stride=(1, 1), padding=(1, 1), bias=False)
                  (bn1): FrozenBatchNorm2d()
                  (relu): ReLU(inplace=True)
                  (conv2): Conv2d(144, 144, kernel_size=(3, 3), stride=(1, 1), padding=(1, 1), bias=False)
                  (bn2): FrozenBatchNorm2d()
                )
              )
            )
            (fuse_layers): ModuleList(
              (0): ModuleList(
                (0): None
                (1): Sequential(
                  (0): Conv2d(36, 18, kernel_size=(1, 1), stride=(1, 1), bias=False)
                  (1): FrozenBatchNorm2d()
                )
                (2): Sequential(
                  (0): Conv2d(72, 18, kernel_size=(1, 1), stride=(1, 1), bias=False)
                  (1): FrozenBatchNorm2d()
                )
                (3): Sequential(
                  (0): Conv2d(144, 18, kernel_size=(1, 1), stride=(1, 1), bias=False)
                  (1): FrozenBatchNorm2d()
                )
              )
              (1): ModuleList(
                (0): Sequential(
                  (0): Sequential(
                    (0): Conv2d(18, 36, kernel_size=(3, 3), stride=(2, 2), padding=(1, 1), bias=False)
                    (1): FrozenBatchNorm2d()
                  )
                )
                (1): None
                (2): Sequential(
                  (0): Conv2d(72, 36, kernel_size=(1, 1), stride=(1, 1), bias=False)
                  (1): FrozenBatchNorm2d()
                )
                (3): Sequential(
                  (0): Conv2d(144, 36, kernel_size=(1, 1), stride=(1, 1), bias=False)
                  (1): FrozenBatchNorm2d()
                )
              )
              (2): ModuleList(
                (0): Sequential(
                  (0): Sequential(
                    (0): Conv2d(18, 18, kernel_size=(3, 3), stride=(2, 2), padding=(1, 1), bias=False)
                    (1): FrozenBatchNorm2d()
                    (2): ReLU(inplace=True)
                  )
                  (1): Sequential(
                    (0): Conv2d(18, 72, kernel_size=(3, 3), stride=(2, 2), padding=(1, 1), bias=False)
                    (1): FrozenBatchNorm2d()
                  )
                )
                (1): Sequential(
                  (0): Sequential(
                    (0): Conv2d(36, 72, kernel_size=(3, 3), stride=(2, 2), padding=(1, 1), bias=False)
                    (1): FrozenBatchNorm2d()
                  )
                )
                (2): None
                (3): Sequential(
                  (0): Conv2d(144, 72, kernel_size=(1, 1), stride=(1, 1), bias=False)
                  (1): FrozenBatchNorm2d()
                )
              )
              (3): ModuleList(
                (0): Sequential(
                  (0): Sequential(
                    (0): Conv2d(18, 18, kernel_size=(3, 3), stride=(2, 2), padding=(1, 1), bias=False)
                    (1): FrozenBatchNorm2d()
                    (2): ReLU(inplace=True)
                  )
                  (1): Sequential(
                    (0): Conv2d(18, 18, kernel_size=(3, 3), stride=(2, 2), padding=(1, 1), bias=False)
                    (1): FrozenBatchNorm2d()
                    (2): ReLU(inplace=True)
                  )
                  (2): Sequential(
                    (0): Conv2d(18, 144, kernel_size=(3, 3), stride=(2, 2), padding=(1, 1), bias=False)
                    (1): FrozenBatchNorm2d()
                  )
                )
                (1): Sequential(
                  (0): Sequential(
                    (0): Conv2d(36, 36, kernel_size=(3, 3), stride=(2, 2), padding=(1, 1), bias=False)
                    (1): FrozenBatchNorm2d()
                    (2): ReLU(inplace=True)
                  )
                  (1): Sequential(
                    (0): Conv2d(36, 144, kernel_size=(3, 3), stride=(2, 2), padding=(1, 1), bias=False)
                    (1): FrozenBatchNorm2d()
                  )
                )
                (2): Sequential(
                  (0): Sequential(
                    (0): Conv2d(72, 144, kernel_size=(3, 3), stride=(2, 2), padding=(1, 1), bias=False)
                    (1): FrozenBatchNorm2d()
                  )
                )
                (3): None
              )
            )
            (relu): ReLU(inplace=True)
          )
          (1): HighResolutionModule(
            (branches): ModuleList(
              (0): Sequential(
                (0): BasicBlock(
                  (conv1): Conv2d(18, 18, kernel_size=(3, 3), stride=(1, 1), padding=(1, 1), bias=False)
                  (bn1): FrozenBatchNorm2d()
                  (relu): ReLU(inplace=True)
                  (conv2): Conv2d(18, 18, kernel_size=(3, 3), stride=(1, 1), padding=(1, 1), bias=False)
                  (bn2): FrozenBatchNorm2d()
                )
                (1): BasicBlock(
                  (conv1): Conv2d(18, 18, kernel_size=(3, 3), stride=(1, 1), padding=(1, 1), bias=False)
                  (bn1): FrozenBatchNorm2d()
                  (relu): ReLU(inplace=True)
                  (conv2): Conv2d(18, 18, kernel_size=(3, 3), stride=(1, 1), padding=(1, 1), bias=False)
                  (bn2): FrozenBatchNorm2d()
                )
                (2): BasicBlock(
                  (conv1): Conv2d(18, 18, kernel_size=(3, 3), stride=(1, 1), padding=(1, 1), bias=False)
                  (bn1): FrozenBatchNorm2d()
                  (relu): ReLU(inplace=True)
                  (conv2): Conv2d(18, 18, kernel_size=(3, 3), stride=(1, 1), padding=(1, 1), bias=False)
                  (bn2): FrozenBatchNorm2d()
                )
                (3): BasicBlock(
                  (conv1): Conv2d(18, 18, kernel_size=(3, 3), stride=(1, 1), padding=(1, 1), bias=False)
                  (bn1): FrozenBatchNorm2d()
                  (relu): ReLU(inplace=True)
                  (conv2): Conv2d(18, 18, kernel_size=(3, 3), stride=(1, 1), padding=(1, 1), bias=False)
                  (bn2): FrozenBatchNorm2d()
                )
              )
              (1): Sequential(
                (0): BasicBlock(
                  (conv1): Conv2d(36, 36, kernel_size=(3, 3), stride=(1, 1), padding=(1, 1), bias=False)
                  (bn1): FrozenBatchNorm2d()
                  (relu): ReLU(inplace=True)
                  (conv2): Conv2d(36, 36, kernel_size=(3, 3), stride=(1, 1), padding=(1, 1), bias=False)
                  (bn2): FrozenBatchNorm2d()
                )
                (1): BasicBlock(
                  (conv1): Conv2d(36, 36, kernel_size=(3, 3), stride=(1, 1), padding=(1, 1), bias=False)
                  (bn1): FrozenBatchNorm2d()
                  (relu): ReLU(inplace=True)
                  (conv2): Conv2d(36, 36, kernel_size=(3, 3), stride=(1, 1), padding=(1, 1), bias=False)
                  (bn2): FrozenBatchNorm2d()
                )
                (2): BasicBlock(
                  (conv1): Conv2d(36, 36, kernel_size=(3, 3), stride=(1, 1), padding=(1, 1), bias=False)
                  (bn1): FrozenBatchNorm2d()
                  (relu): ReLU(inplace=True)
                  (conv2): Conv2d(36, 36, kernel_size=(3, 3), stride=(1, 1), padding=(1, 1), bias=False)
                  (bn2): FrozenBatchNorm2d()
                )
                (3): BasicBlock(
                  (conv1): Conv2d(36, 36, kernel_size=(3, 3), stride=(1, 1), padding=(1, 1), bias=False)
                  (bn1): FrozenBatchNorm2d()
                  (relu): ReLU(inplace=True)
                  (conv2): Conv2d(36, 36, kernel_size=(3, 3), stride=(1, 1), padding=(1, 1), bias=False)
                  (bn2): FrozenBatchNorm2d()
                )
              )
              (2): Sequential(
                (0): BasicBlock(
                  (conv1): Conv2d(72, 72, kernel_size=(3, 3), stride=(1, 1), padding=(1, 1), bias=False)
                  (bn1): FrozenBatchNorm2d()
                  (relu): ReLU(inplace=True)
                  (conv2): Conv2d(72, 72, kernel_size=(3, 3), stride=(1, 1), padding=(1, 1), bias=False)
                  (bn2): FrozenBatchNorm2d()
                )
                (1): BasicBlock(
                  (conv1): Conv2d(72, 72, kernel_size=(3, 3), stride=(1, 1), padding=(1, 1), bias=False)
                  (bn1): FrozenBatchNorm2d()
                  (relu): ReLU(inplace=True)
                  (conv2): Conv2d(72, 72, kernel_size=(3, 3), stride=(1, 1), padding=(1, 1), bias=False)
                  (bn2): FrozenBatchNorm2d()
                )
                (2): BasicBlock(
                  (conv1): Conv2d(72, 72, kernel_size=(3, 3), stride=(1, 1), padding=(1, 1), bias=False)
                  (bn1): FrozenBatchNorm2d()
                  (relu): ReLU(inplace=True)
                  (conv2): Conv2d(72, 72, kernel_size=(3, 3), stride=(1, 1), padding=(1, 1), bias=False)
                  (bn2): FrozenBatchNorm2d()
                )
                (3): BasicBlock(
                  (conv1): Conv2d(72, 72, kernel_size=(3, 3), stride=(1, 1), padding=(1, 1), bias=False)
                  (bn1): FrozenBatchNorm2d()
                  (relu): ReLU(inplace=True)
                  (conv2): Conv2d(72, 72, kernel_size=(3, 3), stride=(1, 1), padding=(1, 1), bias=False)
                  (bn2): FrozenBatchNorm2d()
                )
              )
              (3): Sequential(
                (0): BasicBlock(
                  (conv1): Conv2d(144, 144, kernel_size=(3, 3), stride=(1, 1), padding=(1, 1), bias=False)
                  (bn1): FrozenBatchNorm2d()
                  (relu): ReLU(inplace=True)
                  (conv2): Conv2d(144, 144, kernel_size=(3, 3), stride=(1, 1), padding=(1, 1), bias=False)
                  (bn2): FrozenBatchNorm2d()
                )
                (1): BasicBlock(
                  (conv1): Conv2d(144, 144, kernel_size=(3, 3), stride=(1, 1), padding=(1, 1), bias=False)
                  (bn1): FrozenBatchNorm2d()
                  (relu): ReLU(inplace=True)
                  (conv2): Conv2d(144, 144, kernel_size=(3, 3), stride=(1, 1), padding=(1, 1), bias=False)
                  (bn2): FrozenBatchNorm2d()
                )
                (2): BasicBlock(
                  (conv1): Conv2d(144, 144, kernel_size=(3, 3), stride=(1, 1), padding=(1, 1), bias=False)
                  (bn1): FrozenBatchNorm2d()
                  (relu): ReLU(inplace=True)
                  (conv2): Conv2d(144, 144, kernel_size=(3, 3), stride=(1, 1), padding=(1, 1), bias=False)
                  (bn2): FrozenBatchNorm2d()
                )
                (3): BasicBlock(
                  (conv1): Conv2d(144, 144, kernel_size=(3, 3), stride=(1, 1), padding=(1, 1), bias=False)
                  (bn1): FrozenBatchNorm2d()
                  (relu): ReLU(inplace=True)
                  (conv2): Conv2d(144, 144, kernel_size=(3, 3), stride=(1, 1), padding=(1, 1), bias=False)
                  (bn2): FrozenBatchNorm2d()
                )
              )
            )
            (fuse_layers): ModuleList(
              (0): ModuleList(
                (0): None
                (1): Sequential(
                  (0): Conv2d(36, 18, kernel_size=(1, 1), stride=(1, 1), bias=False)
                  (1): FrozenBatchNorm2d()
                )
                (2): Sequential(
                  (0): Conv2d(72, 18, kernel_size=(1, 1), stride=(1, 1), bias=False)
                  (1): FrozenBatchNorm2d()
                )
                (3): Sequential(
                  (0): Conv2d(144, 18, kernel_size=(1, 1), stride=(1, 1), bias=False)
                  (1): FrozenBatchNorm2d()
                )
              )
              (1): ModuleList(
                (0): Sequential(
                  (0): Sequential(
                    (0): Conv2d(18, 36, kernel_size=(3, 3), stride=(2, 2), padding=(1, 1), bias=False)
                    (1): FrozenBatchNorm2d()
                  )
                )
                (1): None
                (2): Sequential(
                  (0): Conv2d(72, 36, kernel_size=(1, 1), stride=(1, 1), bias=False)
                  (1): FrozenBatchNorm2d()
                )
                (3): Sequential(
                  (0): Conv2d(144, 36, kernel_size=(1, 1), stride=(1, 1), bias=False)
                  (1): FrozenBatchNorm2d()
                )
              )
              (2): ModuleList(
                (0): Sequential(
                  (0): Sequential(
                    (0): Conv2d(18, 18, kernel_size=(3, 3), stride=(2, 2), padding=(1, 1), bias=False)
                    (1): FrozenBatchNorm2d()
                    (2): ReLU(inplace=True)
                  )
                  (1): Sequential(
                    (0): Conv2d(18, 72, kernel_size=(3, 3), stride=(2, 2), padding=(1, 1), bias=False)
                    (1): FrozenBatchNorm2d()
                  )
                )
                (1): Sequential(
                  (0): Sequential(
                    (0): Conv2d(36, 72, kernel_size=(3, 3), stride=(2, 2), padding=(1, 1), bias=False)
                    (1): FrozenBatchNorm2d()
                  )
                )
                (2): None
                (3): Sequential(
                  (0): Conv2d(144, 72, kernel_size=(1, 1), stride=(1, 1), bias=False)
                  (1): FrozenBatchNorm2d()
                )
              )
              (3): ModuleList(
                (0): Sequential(
                  (0): Sequential(
                    (0): Conv2d(18, 18, kernel_size=(3, 3), stride=(2, 2), padding=(1, 1), bias=False)
                    (1): FrozenBatchNorm2d()
                    (2): ReLU(inplace=True)
                  )
                  (1): Sequential(
                    (0): Conv2d(18, 18, kernel_size=(3, 3), stride=(2, 2), padding=(1, 1), bias=False)
                    (1): FrozenBatchNorm2d()
                    (2): ReLU(inplace=True)
                  )
                  (2): Sequential(
                    (0): Conv2d(18, 144, kernel_size=(3, 3), stride=(2, 2), padding=(1, 1), bias=False)
                    (1): FrozenBatchNorm2d()
                  )
                )
                (1): Sequential(
                  (0): Sequential(
                    (0): Conv2d(36, 36, kernel_size=(3, 3), stride=(2, 2), padding=(1, 1), bias=False)
                    (1): FrozenBatchNorm2d()
                    (2): ReLU(inplace=True)
                  )
                  (1): Sequential(
                    (0): Conv2d(36, 144, kernel_size=(3, 3), stride=(2, 2), padding=(1, 1), bias=False)
                    (1): FrozenBatchNorm2d()
                  )
                )
                (2): Sequential(
                  (0): Sequential(
                    (0): Conv2d(72, 144, kernel_size=(3, 3), stride=(2, 2), padding=(1, 1), bias=False)
                    (1): FrozenBatchNorm2d()
                  )
                )
                (3): None
              )
            )
            (relu): ReLU(inplace=True)
          )
          (2): HighResolutionModule(
            (branches): ModuleList(
              (0): Sequential(
                (0): BasicBlock(
                  (conv1): Conv2d(18, 18, kernel_size=(3, 3), stride=(1, 1), padding=(1, 1), bias=False)
                  (bn1): FrozenBatchNorm2d()
                  (relu): ReLU(inplace=True)
                  (conv2): Conv2d(18, 18, kernel_size=(3, 3), stride=(1, 1), padding=(1, 1), bias=False)
                  (bn2): FrozenBatchNorm2d()
                )
                (1): BasicBlock(
                  (conv1): Conv2d(18, 18, kernel_size=(3, 3), stride=(1, 1), padding=(1, 1), bias=False)
                  (bn1): FrozenBatchNorm2d()
                  (relu): ReLU(inplace=True)
                  (conv2): Conv2d(18, 18, kernel_size=(3, 3), stride=(1, 1), padding=(1, 1), bias=False)
                  (bn2): FrozenBatchNorm2d()
                )
                (2): BasicBlock(
                  (conv1): Conv2d(18, 18, kernel_size=(3, 3), stride=(1, 1), padding=(1, 1), bias=False)
                  (bn1): FrozenBatchNorm2d()
                  (relu): ReLU(inplace=True)
                  (conv2): Conv2d(18, 18, kernel_size=(3, 3), stride=(1, 1), padding=(1, 1), bias=False)
                  (bn2): FrozenBatchNorm2d()
                )
                (3): BasicBlock(
                  (conv1): Conv2d(18, 18, kernel_size=(3, 3), stride=(1, 1), padding=(1, 1), bias=False)
                  (bn1): FrozenBatchNorm2d()
                  (relu): ReLU(inplace=True)
                  (conv2): Conv2d(18, 18, kernel_size=(3, 3), stride=(1, 1), padding=(1, 1), bias=False)
                  (bn2): FrozenBatchNorm2d()
                )
              )
              (1): Sequential(
                (0): BasicBlock(
                  (conv1): Conv2d(36, 36, kernel_size=(3, 3), stride=(1, 1), padding=(1, 1), bias=False)
                  (bn1): FrozenBatchNorm2d()
                  (relu): ReLU(inplace=True)
                  (conv2): Conv2d(36, 36, kernel_size=(3, 3), stride=(1, 1), padding=(1, 1), bias=False)
                  (bn2): FrozenBatchNorm2d()
                )
                (1): BasicBlock(
                  (conv1): Conv2d(36, 36, kernel_size=(3, 3), stride=(1, 1), padding=(1, 1), bias=False)
                  (bn1): FrozenBatchNorm2d()
                  (relu): ReLU(inplace=True)
                  (conv2): Conv2d(36, 36, kernel_size=(3, 3), stride=(1, 1), padding=(1, 1), bias=False)
                  (bn2): FrozenBatchNorm2d()
                )
                (2): BasicBlock(
                  (conv1): Conv2d(36, 36, kernel_size=(3, 3), stride=(1, 1), padding=(1, 1), bias=False)
                  (bn1): FrozenBatchNorm2d()
                  (relu): ReLU(inplace=True)
                  (conv2): Conv2d(36, 36, kernel_size=(3, 3), stride=(1, 1), padding=(1, 1), bias=False)
                  (bn2): FrozenBatchNorm2d()
                )
                (3): BasicBlock(
                  (conv1): Conv2d(36, 36, kernel_size=(3, 3), stride=(1, 1), padding=(1, 1), bias=False)
                  (bn1): FrozenBatchNorm2d()
                  (relu): ReLU(inplace=True)
                  (conv2): Conv2d(36, 36, kernel_size=(3, 3), stride=(1, 1), padding=(1, 1), bias=False)
                  (bn2): FrozenBatchNorm2d()
                )
              )
              (2): Sequential(
                (0): BasicBlock(
                  (conv1): Conv2d(72, 72, kernel_size=(3, 3), stride=(1, 1), padding=(1, 1), bias=False)
                  (bn1): FrozenBatchNorm2d()
                  (relu): ReLU(inplace=True)
                  (conv2): Conv2d(72, 72, kernel_size=(3, 3), stride=(1, 1), padding=(1, 1), bias=False)
                  (bn2): FrozenBatchNorm2d()
                )
                (1): BasicBlock(
                  (conv1): Conv2d(72, 72, kernel_size=(3, 3), stride=(1, 1), padding=(1, 1), bias=False)
                  (bn1): FrozenBatchNorm2d()
                  (relu): ReLU(inplace=True)
                  (conv2): Conv2d(72, 72, kernel_size=(3, 3), stride=(1, 1), padding=(1, 1), bias=False)
                  (bn2): FrozenBatchNorm2d()
                )
                (2): BasicBlock(
                  (conv1): Conv2d(72, 72, kernel_size=(3, 3), stride=(1, 1), padding=(1, 1), bias=False)
                  (bn1): FrozenBatchNorm2d()
                  (relu): ReLU(inplace=True)
                  (conv2): Conv2d(72, 72, kernel_size=(3, 3), stride=(1, 1), padding=(1, 1), bias=False)
                  (bn2): FrozenBatchNorm2d()
                )
                (3): BasicBlock(
                  (conv1): Conv2d(72, 72, kernel_size=(3, 3), stride=(1, 1), padding=(1, 1), bias=False)
                  (bn1): FrozenBatchNorm2d()
                  (relu): ReLU(inplace=True)
                  (conv2): Conv2d(72, 72, kernel_size=(3, 3), stride=(1, 1), padding=(1, 1), bias=False)
                  (bn2): FrozenBatchNorm2d()
                )
              )
              (3): Sequential(
                (0): BasicBlock(
                  (conv1): Conv2d(144, 144, kernel_size=(3, 3), stride=(1, 1), padding=(1, 1), bias=False)
                  (bn1): FrozenBatchNorm2d()
                  (relu): ReLU(inplace=True)
                  (conv2): Conv2d(144, 144, kernel_size=(3, 3), stride=(1, 1), padding=(1, 1), bias=False)
                  (bn2): FrozenBatchNorm2d()
                )
                (1): BasicBlock(
                  (conv1): Conv2d(144, 144, kernel_size=(3, 3), stride=(1, 1), padding=(1, 1), bias=False)
                  (bn1): FrozenBatchNorm2d()
                  (relu): ReLU(inplace=True)
                  (conv2): Conv2d(144, 144, kernel_size=(3, 3), stride=(1, 1), padding=(1, 1), bias=False)
                  (bn2): FrozenBatchNorm2d()
                )
                (2): BasicBlock(
                  (conv1): Conv2d(144, 144, kernel_size=(3, 3), stride=(1, 1), padding=(1, 1), bias=False)
                  (bn1): FrozenBatchNorm2d()
                  (relu): ReLU(inplace=True)
                  (conv2): Conv2d(144, 144, kernel_size=(3, 3), stride=(1, 1), padding=(1, 1), bias=False)
                  (bn2): FrozenBatchNorm2d()
                )
                (3): BasicBlock(
                  (conv1): Conv2d(144, 144, kernel_size=(3, 3), stride=(1, 1), padding=(1, 1), bias=False)
                  (bn1): FrozenBatchNorm2d()
                  (relu): ReLU(inplace=True)
                  (conv2): Conv2d(144, 144, kernel_size=(3, 3), stride=(1, 1), padding=(1, 1), bias=False)
                  (bn2): FrozenBatchNorm2d()
                )
              )
            )
            (fuse_layers): ModuleList(
              (0): ModuleList(
                (0): None
                (1): Sequential(
                  (0): Conv2d(36, 18, kernel_size=(1, 1), stride=(1, 1), bias=False)
                  (1): FrozenBatchNorm2d()
                )
                (2): Sequential(
                  (0): Conv2d(72, 18, kernel_size=(1, 1), stride=(1, 1), bias=False)
                  (1): FrozenBatchNorm2d()
                )
                (3): Sequential(
                  (0): Conv2d(144, 18, kernel_size=(1, 1), stride=(1, 1), bias=False)
                  (1): FrozenBatchNorm2d()
                )
              )
              (1): ModuleList(
                (0): Sequential(
                  (0): Sequential(
                    (0): Conv2d(18, 36, kernel_size=(3, 3), stride=(2, 2), padding=(1, 1), bias=False)
                    (1): FrozenBatchNorm2d()
                  )
                )
                (1): None
                (2): Sequential(
                  (0): Conv2d(72, 36, kernel_size=(1, 1), stride=(1, 1), bias=False)
                  (1): FrozenBatchNorm2d()
                )
                (3): Sequential(
                  (0): Conv2d(144, 36, kernel_size=(1, 1), stride=(1, 1), bias=False)
                  (1): FrozenBatchNorm2d()
                )
              )
              (2): ModuleList(
                (0): Sequential(
                  (0): Sequential(
                    (0): Conv2d(18, 18, kernel_size=(3, 3), stride=(2, 2), padding=(1, 1), bias=False)
                    (1): FrozenBatchNorm2d()
                    (2): ReLU(inplace=True)
                  )
                  (1): Sequential(
                    (0): Conv2d(18, 72, kernel_size=(3, 3), stride=(2, 2), padding=(1, 1), bias=False)
                    (1): FrozenBatchNorm2d()
                  )
                )
                (1): Sequential(
                  (0): Sequential(
                    (0): Conv2d(36, 72, kernel_size=(3, 3), stride=(2, 2), padding=(1, 1), bias=False)
                    (1): FrozenBatchNorm2d()
                  )
                )
                (2): None
                (3): Sequential(
                  (0): Conv2d(144, 72, kernel_size=(1, 1), stride=(1, 1), bias=False)
                  (1): FrozenBatchNorm2d()
                )
              )
              (3): ModuleList(
                (0): Sequential(
                  (0): Sequential(
                    (0): Conv2d(18, 18, kernel_size=(3, 3), stride=(2, 2), padding=(1, 1), bias=False)
                    (1): FrozenBatchNorm2d()
                    (2): ReLU(inplace=True)
                  )
                  (1): Sequential(
                    (0): Conv2d(18, 18, kernel_size=(3, 3), stride=(2, 2), padding=(1, 1), bias=False)
                    (1): FrozenBatchNorm2d()
                    (2): ReLU(inplace=True)
                  )
                  (2): Sequential(
                    (0): Conv2d(18, 144, kernel_size=(3, 3), stride=(2, 2), padding=(1, 1), bias=False)
                    (1): FrozenBatchNorm2d()
                  )
                )
                (1): Sequential(
                  (0): Sequential(
                    (0): Conv2d(36, 36, kernel_size=(3, 3), stride=(2, 2), padding=(1, 1), bias=False)
                    (1): FrozenBatchNorm2d()
                    (2): ReLU(inplace=True)
                  )
                  (1): Sequential(
                    (0): Conv2d(36, 144, kernel_size=(3, 3), stride=(2, 2), padding=(1, 1), bias=False)
                    (1): FrozenBatchNorm2d()
                  )
                )
                (2): Sequential(
                  (0): Sequential(
                    (0): Conv2d(72, 144, kernel_size=(3, 3), stride=(2, 2), padding=(1, 1), bias=False)
                    (1): FrozenBatchNorm2d()
                  )
                )
                (3): None
              )
            )
            (relu): ReLU(inplace=True)
          )
        )
      )
    )
    (1): PositionEmbeddingSine()
  )
  (input_proj): Conv2d(270, 256, kernel_size=(1, 1), stride=(1, 1))
)
[32m[12/20 08:12:53 DETR]: [0mnumber of params: 77572708
loading annotations into memory...
Done (t=64.47s)
creating index...
index created!
loading annotations into memory...
Done (t=4.43s)
creating index...
index created!
[32m[12/20 08:14:03 DETR]: [0mStart training
Epoch: [0]  [   0/7393]  eta: 4:02:24  lr: 0.000100  class_error: 97.99  loss: 6
…
